#loc = loc("/home/vllm/.cache/vllm/torch_compile_cache/d4ec7c2a7d/rank_0_0/inductor_cache/mk/cmk34tieuty2rpoli3ynf2ihs3dcfx6o5sv2l7rkt5vj44p2tk74.py":19:0)
module {
  tt.func public @triton_poi_fused__to_copy_embedding_0(%arg0: !tt.ptr<i32> {tt.divisibility = 16 : i32} loc("/home/vllm/.cache/vllm/torch_compile_cache/d4ec7c2a7d/rank_0_0/inductor_cache/mk/cmk34tieuty2rpoli3ynf2ihs3dcfx6o5sv2l7rkt5vj44p2tk74.py":19:0), %arg1: !tt.ptr<bf16> {tt.divisibility = 16 : i32} loc("/home/vllm/.cache/vllm/torch_compile_cache/d4ec7c2a7d/rank_0_0/inductor_cache/mk/cmk34tieuty2rpoli3ynf2ihs3dcfx6o5sv2l7rkt5vj44p2tk74.py":19:0), %arg2: !tt.ptr<bf16> {tt.divisibility = 16 : i32} loc("/home/vllm/.cache/vllm/torch_compile_cache/d4ec7c2a7d/rank_0_0/inductor_cache/mk/cmk34tieuty2rpoli3ynf2ihs3dcfx6o5sv2l7rkt5vj44p2tk74.py":19:0), %arg3: i32 {tt.divisibility = 16 : i32} loc("/home/vllm/.cache/vllm/torch_compile_cache/d4ec7c2a7d/rank_0_0/inductor_cache/mk/cmk34tieuty2rpoli3ynf2ihs3dcfx6o5sv2l7rkt5vj44p2tk74.py":19:0)) attributes {noinline = false} {
    %cst = arith.constant dense<0> : tensor<512xi64> loc(#loc1)
    %cst_0 = arith.constant dense<151936> : tensor<512xi64> loc(#loc1)
    %cst_1 = arith.constant dense<1024> : tensor<512xi64> loc(#loc1)
    %cst_2 = arith.constant dense<1024> : tensor<512xi32> loc(#loc1)
    %c512_i32 = arith.constant 512 : i32 loc(#loc1)
    %0 = tt.get_program_id x : i32 loc(#loc2)
    %1 = arith.muli %0, %c512_i32 : i32 loc(#loc3)
    %2 = tt.make_range {end = 512 : i32, start = 0 : i32} : tensor<512xi32> loc(#loc4)
    %3 = tt.splat %1 : i32 -> tensor<512xi32> loc(#loc5)
    %4 = arith.addi %3, %2 : tensor<512xi32> loc(#loc5)
    %5 = tt.splat %arg3 : i32 -> tensor<512xi32> loc(#loc6)
    %6 = arith.cmpi slt, %4, %5 : tensor<512xi32> loc(#loc6)
    %7 = arith.divsi %4, %cst_2 : tensor<512xi32> loc(#loc7)
    %8 = arith.remsi %4, %cst_2 : tensor<512xi32> loc(#loc8)
    %9 = tt.splat %arg0 : !tt.ptr<i32> -> tensor<512x!tt.ptr<i32>> loc(#loc9)
    %10 = tt.addptr %9, %7 : tensor<512x!tt.ptr<i32>>, tensor<512xi32> loc(#loc9)
    %11 = tt.load %10, %6 evictionPolicy = evict_last : tensor<512x!tt.ptr<i32>> loc(#loc10)
    %12 = arith.extsi %11 : tensor<512xi32> to tensor<512xi64> loc(#loc11)
    %13 = arith.addi %12, %cst_0 : tensor<512xi64> loc(#loc12)
    %14 = arith.cmpi slt, %12, %cst : tensor<512xi64> loc(#loc13)
    %15 = arith.select %14, %13, %12 : tensor<512xi1>, tensor<512xi64> loc(#loc14)
    %16 = arith.muli %15, %cst_1 : tensor<512xi64> loc(#loc15)
    %17 = arith.extsi %8 : tensor<512xi32> to tensor<512xi64> loc(#loc16)
    %18 = arith.addi %17, %16 : tensor<512xi64> loc(#loc16)
    %19 = tt.splat %arg1 : !tt.ptr<bf16> -> tensor<512x!tt.ptr<bf16>> loc(#loc17)
    %20 = tt.addptr %19, %18 : tensor<512x!tt.ptr<bf16>>, tensor<512xi64> loc(#loc17)
    %21 = tt.load %20, %6 : tensor<512x!tt.ptr<bf16>> loc(#loc18)
    %22 = arith.extf %21 : tensor<512xbf16> to tensor<512xf32> loc(#loc19)
    %23 = tt.splat %arg2 : !tt.ptr<bf16> -> tensor<512x!tt.ptr<bf16>> loc(#loc20)
    %24 = tt.addptr %23, %4 : tensor<512x!tt.ptr<bf16>>, tensor<512xi32> loc(#loc20)
    %25 = arith.truncf %22 : tensor<512xf32> to tensor<512xbf16> loc(#loc21)
    tt.store %24, %25, %6 : tensor<512x!tt.ptr<bf16>> loc(#loc21)
    tt.return loc(#loc22)
  } loc(#loc)
} loc(#loc)
#loc1 = loc(unknown)
#loc2 = loc("/home/vllm/.cache/vllm/torch_compile_cache/d4ec7c2a7d/rank_0_0/inductor_cache/mk/cmk34tieuty2rpoli3ynf2ihs3dcfx6o5sv2l7rkt5vj44p2tk74.py":20:28)
#loc3 = loc("/home/vllm/.cache/vllm/torch_compile_cache/d4ec7c2a7d/rank_0_0/inductor_cache/mk/cmk34tieuty2rpoli3ynf2ihs3dcfx6o5sv2l7rkt5vj44p2tk74.py":20:33)
#loc4 = loc("/home/vllm/.cache/vllm/torch_compile_cache/d4ec7c2a7d/rank_0_0/inductor_cache/mk/cmk34tieuty2rpoli3ynf2ihs3dcfx6o5sv2l7rkt5vj44p2tk74.py":21:36)
#loc5 = loc("/home/vllm/.cache/vllm/torch_compile_cache/d4ec7c2a7d/rank_0_0/inductor_cache/mk/cmk34tieuty2rpoli3ynf2ihs3dcfx6o5sv2l7rkt5vj44p2tk74.py":21:23)
#loc6 = loc("/home/vllm/.cache/vllm/torch_compile_cache/d4ec7c2a7d/rank_0_0/inductor_cache/mk/cmk34tieuty2rpoli3ynf2ihs3dcfx6o5sv2l7rkt5vj44p2tk74.py":22:21)
#loc7 = loc("/home/vllm/.cache/vllm/torch_compile_cache/d4ec7c2a7d/rank_0_0/inductor_cache/mk/cmk34tieuty2rpoli3ynf2ihs3dcfx6o5sv2l7rkt5vj44p2tk74.py":23:19)
#loc8 = loc("/home/vllm/.cache/vllm/torch_compile_cache/d4ec7c2a7d/rank_0_0/inductor_cache/mk/cmk34tieuty2rpoli3ynf2ihs3dcfx6o5sv2l7rkt5vj44p2tk74.py":24:19)
#loc9 = loc("/home/vllm/.cache/vllm/torch_compile_cache/d4ec7c2a7d/rank_0_0/inductor_cache/mk/cmk34tieuty2rpoli3ynf2ihs3dcfx6o5sv2l7rkt5vj44p2tk74.py":26:30)
#loc10 = loc("/home/vllm/.cache/vllm/torch_compile_cache/d4ec7c2a7d/rank_0_0/inductor_cache/mk/cmk34tieuty2rpoli3ynf2ihs3dcfx6o5sv2l7rkt5vj44p2tk74.py":26:35)
#loc11 = loc("/home/vllm/.cache/vllm/torch_compile_cache/d4ec7c2a7d/rank_0_0/inductor_cache/mk/cmk34tieuty2rpoli3ynf2ihs3dcfx6o5sv2l7rkt5vj44p2tk74.py":27:19)
#loc12 = loc("/home/vllm/.cache/vllm/torch_compile_cache/d4ec7c2a7d/rank_0_0/inductor_cache/mk/cmk34tieuty2rpoli3ynf2ihs3dcfx6o5sv2l7rkt5vj44p2tk74.py":29:18)
#loc13 = loc("/home/vllm/.cache/vllm/torch_compile_cache/d4ec7c2a7d/rank_0_0/inductor_cache/mk/cmk34tieuty2rpoli3ynf2ihs3dcfx6o5sv2l7rkt5vj44p2tk74.py":30:18)
#loc14 = loc("/home/vllm/.cache/vllm/torch_compile_cache/d4ec7c2a7d/rank_0_0/inductor_cache/mk/cmk34tieuty2rpoli3ynf2ihs3dcfx6o5sv2l7rkt5vj44p2tk74.py":31:32)
#loc15 = loc("/home/vllm/.cache/vllm/torch_compile_cache/d4ec7c2a7d/rank_0_0/inductor_cache/mk/cmk34tieuty2rpoli3ynf2ihs3dcfx6o5sv2l7rkt5vj44p2tk74.py":33:40)
#loc16 = loc("/home/vllm/.cache/vllm/torch_compile_cache/d4ec7c2a7d/rank_0_0/inductor_cache/mk/cmk34tieuty2rpoli3ynf2ihs3dcfx6o5sv2l7rkt5vj44p2tk74.py":33:35)
#loc17 = loc("/home/vllm/.cache/vllm/torch_compile_cache/d4ec7c2a7d/rank_0_0/inductor_cache/mk/cmk34tieuty2rpoli3ynf2ihs3dcfx6o5sv2l7rkt5vj44p2tk74.py":33:30)
#loc18 = loc("/home/vllm/.cache/vllm/torch_compile_cache/d4ec7c2a7d/rank_0_0/inductor_cache/mk/cmk34tieuty2rpoli3ynf2ihs3dcfx6o5sv2l7rkt5vj44p2tk74.py":33:47)
#loc19 = loc("/home/vllm/.cache/vllm/torch_compile_cache/d4ec7c2a7d/rank_0_0/inductor_cache/mk/cmk34tieuty2rpoli3ynf2ihs3dcfx6o5sv2l7rkt5vj44p2tk74.py":33:57)
#loc20 = loc("/home/vllm/.cache/vllm/torch_compile_cache/d4ec7c2a7d/rank_0_0/inductor_cache/mk/cmk34tieuty2rpoli3ynf2ihs3dcfx6o5sv2l7rkt5vj44p2tk74.py":34:25)
#loc21 = loc("/home/vllm/.cache/vllm/torch_compile_cache/d4ec7c2a7d/rank_0_0/inductor_cache/mk/cmk34tieuty2rpoli3ynf2ihs3dcfx6o5sv2l7rkt5vj44p2tk74.py":34:36)
#loc22 = loc("/home/vllm/.cache/vllm/torch_compile_cache/d4ec7c2a7d/rank_0_0/inductor_cache/mk/cmk34tieuty2rpoli3ynf2ihs3dcfx6o5sv2l7rkt5vj44p2tk74.py":34:4)
